…
Epoch 9/10 | Loss: 0.0000 | Train Acc: 0.9622 | Val Acc: 0.9431 | Val IoU: 0.8591 | LR: 0.000500 | Time: 331.10s
Epoch 10/10 | Loss: 0.0000 | Train Acc: 0.9624 | Val Acc: 0.9477 | Val IoU: 0.8667 | LR: 0.000500 | Time: 330.47s
🏁 Training completed in 3312.48 seconds.
🛑 Stopped at epoch 10
Best model retained: results\l1d\01_04_12_51_acc_0.9477_EPOCH_9.pth


MODEL SUMMARY:

==========================================================================================
Layer (type:depth-idx)                   Output Shape              Param #
==========================================================================================
WaveletCNN                               [1, 3, 32, 32]            --
├─ModuleList: 1-1                        --                        --
│    └─DWTForward: 2-1                   [1, 120, 18, 18]          --
├─ModuleList: 1-2                        --                        --
│    └─Conv2d: 2-2                       [1, 16, 18, 18]           7,696
├─ModuleList: 1-3                        --                        --
│    └─Sequential: 2-3                   [1, 16, 18, 18]           --
│    │    └─Conv2d: 3-1                  [1, 16, 18, 18]           2,320
│    │    └─BatchNorm2d: 3-2             [1, 16, 18, 18]           32
│    │    └─LeakyReLU: 3-3               [1, 16, 18, 18]           --
│    │    └─Dropout: 3-4                 [1, 16, 18, 18]           --
├─Sequential: 1-4                        [1, 8, 18, 18]            --
│    └─Conv2d: 2-4                       [1, 8, 18, 18]            1,160
│    └─BatchNorm2d: 2-5                  [1, 8, 18, 18]            16
│    └─LeakyReLU: 2-6                    [1, 8, 18, 18]            --
│    └─Dropout: 2-7                      [1, 8, 18, 18]            --
│    └─Conv2d: 2-8                       [1, 8, 18, 18]            584
│    └─BatchNorm2d: 2-9                  [1, 8, 18, 18]            16
│    └─LeakyReLU: 2-10                   [1, 8, 18, 18]            --
├─ModuleList: 1-5                        --                        --
│    └─ConvTranspose2d: 2-11             [1, 3, 36, 36]            99
==========================================================================================
Total params: 11,923
Trainable params: 11,923
Non-trainable params: 0
Total mult-adds (Units.MEGABYTES): 3.94
==========================================================================================
Input size (MB): 0.49
Forward/backward pass size (MB): 0.24
Params size (MB): 0.05
Estimated Total Size (MB): 0.78
…
