…
Epoch 9/10 | Loss: 0.0000 | Train Acc: 0.9687 | Val Acc: 0.9517 | Val IoU: 0.8782 | LR: 0.000250 | Time: 143.74s
Epoch 10/10 | Loss: 0.0000 | Train Acc: 0.9696 | Val Acc: 0.9491 | Val IoU: 0.8715 | LR: 0.000250 | Time: 143.80s
🏁 Training completed in 1483.42 seconds.
🛑 Stopped at epoch 10
Best model retained: results\l1d\01_04_15_40_acc_0.9557_EPOCH_0.pth


MODEL SUMMARY:

==========================================================================================
Layer (type:depth-idx)                   Output Shape              Param #
==========================================================================================
WaveletCNN                               [1, 3, 16, 16]            --
├─ModuleList: 1-1                        --                        --
│    └─DWTForward: 2-1                   [1, 120, 8, 8]            --
├─ModuleList: 1-2                        --                        --
│    └─Conv2d: 2-2                       [1, 16, 8, 8]             7,696
├─ModuleList: 1-3                        --                        --
│    └─Sequential: 2-3                   [1, 16, 8, 8]             --
│    │    └─Conv2d: 3-1                  [1, 16, 8, 8]             2,320
│    │    └─BatchNorm2d: 3-2             [1, 16, 8, 8]             32
│    │    └─LeakyReLU: 3-3               [1, 16, 8, 8]             --
│    │    └─Dropout: 3-4                 [1, 16, 8, 8]             --
├─Sequential: 1-4                        [1, 8, 8, 8]              --
│    └─Conv2d: 2-4                       [1, 8, 8, 8]              1,160
│    └─BatchNorm2d: 2-5                  [1, 8, 8, 8]              16
│    └─LeakyReLU: 2-6                    [1, 8, 8, 8]              --
│    └─Dropout: 2-7                      [1, 8, 8, 8]              --
│    └─Conv2d: 2-8                       [1, 8, 8, 8]              584
│    └─BatchNorm2d: 2-9                  [1, 8, 8, 8]              16
│    └─LeakyReLU: 2-10                   [1, 8, 8, 8]              --
├─ModuleList: 1-5                        --                        --
│    └─ConvTranspose2d: 2-11             [1, 3, 16, 16]            99
==========================================================================================
Total params: 11,923
Trainable params: 11,923
Non-trainable params: 0
Total mult-adds (Units.MEGABYTES): 0.78
==========================================================================================
Input size (MB): 0.12
Forward/backward pass size (MB): 0.05
Params size (MB): 0.05
Estimated Total Size (MB): 0.22
…
