…
Epoch 9/10 | Loss: 0.0000 | Train Acc: 0.9399 | Val Acc: 0.9466 | Val IoU: 0.8616 | LR: 0.000500 | Time: 144.97s
Epoch 10/10 | Loss: 0.0000 | Train Acc: 0.9402 | Val Acc: 0.9467 | Val IoU: 0.8581 | LR: 0.000250 | Time: 144.97s
🏁 Training completed in 1450.79 seconds.
🛑 Stopped at epoch 10
Best model retained: results\l1d\01_04_17_33_acc_0.9509_EPOCH_1.pth


MODEL SUMMARY:

==========================================================================================
Layer (type:depth-idx)                   Output Shape              Param #
==========================================================================================
WaveletCNN                               [1, 3, 16, 16]            --
├─ModuleList: 1-1                        --                        --
│    └─DWTForward: 2-1                   [1, 120, 8, 8]            --
├─ModuleList: 1-2                        --                        --
│    └─Conv2d: 2-2                       [1, 4, 8, 8]              1,924
├─ModuleList: 1-3                        --                        --
│    └─Sequential: 2-3                   [1, 4, 8, 8]              --
│    │    └─Conv2d: 3-1                  [1, 4, 8, 8]              148
│    │    └─BatchNorm2d: 3-2             [1, 4, 8, 8]              8
│    │    └─LeakyReLU: 3-3               [1, 4, 8, 8]              --
│    │    └─Dropout: 3-4                 [1, 4, 8, 8]              --
├─Sequential: 1-4                        [1, 2, 8, 8]              --
│    └─Conv2d: 2-4                       [1, 2, 8, 8]              74
│    └─BatchNorm2d: 2-5                  [1, 2, 8, 8]              4
│    └─LeakyReLU: 2-6                    [1, 2, 8, 8]              --
│    └─Dropout: 2-7                      [1, 2, 8, 8]              --
│    └─Conv2d: 2-8                       [1, 2, 8, 8]              38
│    └─BatchNorm2d: 2-9                  [1, 2, 8, 8]              4
│    └─LeakyReLU: 2-10                   [1, 2, 8, 8]              --
├─ModuleList: 1-5                        --                        --
│    └─ConvTranspose2d: 2-11             [1, 3, 16, 16]            27
==========================================================================================
Total params: 2,227
Trainable params: 2,227
Non-trainable params: 0
Total mult-adds (Units.MEGABYTES): 0.15
==========================================================================================
Input size (MB): 0.12
Forward/backward pass size (MB): 0.02
Params size (MB): 0.01
Estimated Total Size (MB): 0.15
…
