…
Epoch 9/10 | Loss: 0.0000 | Train Acc: 0.9297 | Val Acc: 0.9472 | Val IoU: 0.8634 | LR: 0.000250 | Time: 88.47s
Epoch 10/10 | Loss: 0.0000 | Train Acc: 0.9316 | Val Acc: 0.9377 | Val IoU: 0.8491 | LR: 0.000250 | Time: 93.45s
🏁 Training completed in 997.34 seconds.
🛑 Stopped at epoch 10
Best model retained: results\l1d\01_04_18_14_acc_0.9527_EPOCH_0.pth


MODEL SUMMARY:

==========================================================================================
Layer (type:depth-idx)                   Output Shape              Param #
==========================================================================================
WaveletCNN                               [1, 3, 8, 8]              --
├─ModuleList: 1-1                        --                        --
│    └─DWTForward: 2-1                   [1, 120, 6, 6]            --
├─ModuleList: 1-2                        --                        --
│    └─Conv2d: 2-2                       [1, 4, 6, 6]              1,924
├─ModuleList: 1-3                        --                        --
│    └─Sequential: 2-3                   [1, 4, 6, 6]              --
│    │    └─Conv2d: 3-1                  [1, 4, 6, 6]              148
│    │    └─BatchNorm2d: 3-2             [1, 4, 6, 6]              8
│    │    └─LeakyReLU: 3-3               [1, 4, 6, 6]              --
│    │    └─Dropout: 3-4                 [1, 4, 6, 6]              --
├─Sequential: 1-4                        [1, 2, 6, 6]              --
│    └─Conv2d: 2-4                       [1, 2, 6, 6]              74
│    └─BatchNorm2d: 2-5                  [1, 2, 6, 6]              4
│    └─LeakyReLU: 2-6                    [1, 2, 6, 6]              --
│    └─Dropout: 2-7                      [1, 2, 6, 6]              --
│    └─Conv2d: 2-8                       [1, 2, 6, 6]              38
│    └─BatchNorm2d: 2-9                  [1, 2, 6, 6]              4
│    └─LeakyReLU: 2-10                   [1, 2, 6, 6]              --
├─ModuleList: 1-5                        --                        --
│    └─ConvTranspose2d: 2-11             [1, 3, 12, 12]            27
==========================================================================================
Total params: 2,227
Trainable params: 2,227
Non-trainable params: 0
Total mult-adds (Units.MEGABYTES): 0.08
==========================================================================================
Input size (MB): 0.03
Forward/backward pass size (MB): 0.01
Params size (MB): 0.01
Estimated Total Size (MB): 0.05
…
