…
Epoch 5/10 | Loss: 0.0000 | Train Acc: 0.9734 | Val Acc: 0.9532 | Val IoU: 0.8813 | LR: 0.000500 | Time: 152.17s
Epoch 6/10 | Loss: 0.0000 | Train Acc: 0.9754 | Val Acc: 0.9532 | Val IoU: 0.8836 | LR: 0.000500 | Time: 152.21s
🏁 Training completed in 1026.62 seconds.
🛑 Stopped at epoch 7
Best model retained: results\l1d\01_04_16_18_acc_0.9544_EPOCH_0.pth


MODEL SUMMARY:

==========================================================================================
Layer (type:depth-idx)                   Output Shape              Param #
==========================================================================================
WaveletCNN                               [1, 3, 16, 16]            --
├─ModuleList: 1-1                        --                        --
│    └─DWTForward: 2-1                   [1, 120, 8, 8]            --
├─ModuleList: 1-2                        --                        --
│    └─Conv2d: 2-2                       [1, 32, 8, 8]             15,392
├─ModuleList: 1-3                        --                        --
│    └─Sequential: 2-3                   [1, 32, 8, 8]             --
│    │    └─Conv2d: 3-1                  [1, 32, 8, 8]             9,248
│    │    └─BatchNorm2d: 3-2             [1, 32, 8, 8]             64
│    │    └─LeakyReLU: 3-3               [1, 32, 8, 8]             --
│    │    └─Dropout: 3-4                 [1, 32, 8, 8]             --
├─Sequential: 1-4                        [1, 16, 8, 8]             --
│    └─Conv2d: 2-4                       [1, 16, 8, 8]             4,624
│    └─BatchNorm2d: 2-5                  [1, 16, 8, 8]             32
│    └─LeakyReLU: 2-6                    [1, 16, 8, 8]             --
│    └─Dropout: 2-7                      [1, 16, 8, 8]             --
│    └─Conv2d: 2-8                       [1, 16, 8, 8]             2,320
│    └─BatchNorm2d: 2-9                  [1, 16, 8, 8]             32
│    └─LeakyReLU: 2-10                   [1, 16, 8, 8]             --
├─ModuleList: 1-5                        --                        --
│    └─ConvTranspose2d: 2-11             [1, 3, 16, 16]            195
==========================================================================================
Total params: 31,907
Trainable params: 31,907
Non-trainable params: 0
Total mult-adds (Units.MEGABYTES): 2.07
==========================================================================================
Input size (MB): 0.12
Forward/backward pass size (MB): 0.09
Params size (MB): 0.13
Estimated Total Size (MB): 0.34
…
