…
Epoch 9/10 | Loss: 0.0000 | Train Acc: 0.9479 | Val Acc: 0.9273 | Val IoU: 0.8500 | LR: 0.000500 | Time: 145.04s
Epoch 10/10 | Loss: 0.0000 | Train Acc: 0.9491 | Val Acc: 0.9432 | Val IoU: 0.8801 | LR: 0.000500 | Time: 144.86s
🏁 Training completed in 1477.89 seconds.
🛑 Stopped at epoch 10
Best model retained: results\l1d\01_04_18_47_acc_0.9432_EPOCH_9.pth


MODEL SUMMARY:

==========================================================================================
Layer (type:depth-idx)                   Output Shape              Param #
==========================================================================================
WaveletCNN                               [1, 3, 16, 16]            --
├─ModuleList: 1-1                        --                        --
│    └─DWTForward: 2-1                   [1, 120, 10, 10]          --
├─ModuleList: 1-2                        --                        --
│    └─Conv2d: 2-2                       [1, 4, 10, 10]            1,924
├─ModuleList: 1-3                        --                        --
│    └─Sequential: 2-3                   [1, 4, 10, 10]            --
│    │    └─Conv2d: 3-1                  [1, 4, 10, 10]            148
│    │    └─BatchNorm2d: 3-2             [1, 4, 10, 10]            8
│    │    └─LeakyReLU: 3-3               [1, 4, 10, 10]            --
│    │    └─Dropout: 3-4                 [1, 4, 10, 10]            --
├─Sequential: 1-4                        [1, 2, 10, 10]            --
│    └─Conv2d: 2-4                       [1, 2, 10, 10]            74
│    └─BatchNorm2d: 2-5                  [1, 2, 10, 10]            4
│    └─LeakyReLU: 2-6                    [1, 2, 10, 10]            --
│    └─Dropout: 2-7                      [1, 2, 10, 10]            --
│    └─Conv2d: 2-8                       [1, 2, 10, 10]            38
│    └─BatchNorm2d: 2-9                  [1, 2, 10, 10]            4
│    └─LeakyReLU: 2-10                   [1, 2, 10, 10]            --
├─ModuleList: 1-5                        --                        --
│    └─ConvTranspose2d: 2-11             [1, 3, 20, 20]            27
==========================================================================================
Total params: 2,227
Trainable params: 2,227
Non-trainable params: 0
Total mult-adds (Units.MEGABYTES): 0.23
==========================================================================================
Input size (MB): 0.12
Forward/backward pass size (MB): 0.03
Params size (MB): 0.01
Estimated Total Size (MB): 0.16
…
