…
Epoch 29/30 | Loss: 0.0000 | Train Acc: 0.9535 | Val Acc: 0.9563 | Val IoU: 0.8947 | LR: 0.000031 | Time: 143.68s
Epoch 30/30 | Loss: 0.0000 | Train Acc: 0.9535 | Val Acc: 0.9551 | Val IoU: 0.8921 | LR: 0.000016 | Time: 143.14s
🏁 Training completed in 4364.61 seconds.
🛑 Stopped at epoch 30
Best model retained: results\l1d\01_04_20_37_acc_0.9616_EPOCH_5.pth


MODEL SUMMARY:

==========================================================================================
Layer (type:depth-idx)                   Output Shape              Param #
==========================================================================================
WaveletCNN                               [1, 3, 16, 16]            --
├─ModuleList: 1-1                        --                        --
│    └─DWTForward: 2-1                   [1, 120, 10, 10]          --
├─ModuleList: 1-2                        --                        --
│    └─Conv2d: 2-2                       [1, 8, 10, 10]            3,848
├─ModuleList: 1-3                        --                        --
│    └─Sequential: 2-3                   [1, 8, 10, 10]            --
│    │    └─Conv2d: 3-1                  [1, 8, 10, 10]            584
│    │    └─BatchNorm2d: 3-2             [1, 8, 10, 10]            16
│    │    └─LeakyReLU: 3-3               [1, 8, 10, 10]            --
│    │    └─Dropout: 3-4                 [1, 8, 10, 10]            --
├─Sequential: 1-4                        [1, 4, 10, 10]            --
│    └─Conv2d: 2-4                       [1, 4, 10, 10]            292
│    └─BatchNorm2d: 2-5                  [1, 4, 10, 10]            8
│    └─LeakyReLU: 2-6                    [1, 4, 10, 10]            --
│    └─Dropout: 2-7                      [1, 4, 10, 10]            --
│    └─Conv2d: 2-8                       [1, 4, 10, 10]            148
│    └─BatchNorm2d: 2-9                  [1, 4, 10, 10]            8
│    └─LeakyReLU: 2-10                   [1, 4, 10, 10]            --
├─ModuleList: 1-5                        --                        --
│    └─ConvTranspose2d: 2-11             [1, 3, 20, 20]            51
==========================================================================================
Total params: 4,955
Trainable params: 4,955
Non-trainable params: 0
Total mult-adds (Units.MEGABYTES): 0.51
==========================================================================================
Input size (MB): 0.12
Forward/backward pass size (MB): 0.04
Params size (MB): 0.02
Estimated Total Size (MB): 0.18
…
