…
Epoch 9/10 | Loss: 0.0000 | Train Acc: 0.9516 | Val Acc: 0.9270 | Val IoU: 0.8316 | LR: 0.000500 | Time: 339.19s
Epoch 10/10 | Loss: 0.0000 | Train Acc: 0.9519 | Val Acc: 0.9422 | Val IoU: 0.8587 | LR: 0.000500 | Time: 334.02s
🏁 Training completed in 3308.60 seconds.
🛑 Stopped at epoch 10
Best model retained: results\l1d\01_04_11_53_acc_0.9439_EPOCH_2.pth


MODEL SUMMARY:

==========================================================================================
Layer (type:depth-idx)                   Output Shape              Param #
==========================================================================================
WaveletCNN                               [1, 3, 32, 32]            --
├─ModuleList: 1-1                        --                        --
│    └─DWTForward: 2-1                   [1, 120, 20, 20]          --
├─ModuleList: 1-2                        --                        --
│    └─Conv2d: 2-2                       [1, 16, 20, 20]           7,696
├─ModuleList: 1-3                        --                        --
│    └─Sequential: 2-3                   [1, 16, 20, 20]           --
│    │    └─Conv2d: 3-1                  [1, 16, 20, 20]           2,320
│    │    └─BatchNorm2d: 3-2             [1, 16, 20, 20]           32
│    │    └─LeakyReLU: 3-3               [1, 16, 20, 20]           --
│    │    └─Dropout: 3-4                 [1, 16, 20, 20]           --
├─Sequential: 1-4                        [1, 8, 20, 20]            --
│    └─Conv2d: 2-4                       [1, 8, 20, 20]            1,160
│    └─BatchNorm2d: 2-5                  [1, 8, 20, 20]            16
│    └─LeakyReLU: 2-6                    [1, 8, 20, 20]            --
│    └─Dropout: 2-7                      [1, 8, 20, 20]            --
│    └─Conv2d: 2-8                       [1, 8, 20, 20]            584
│    └─BatchNorm2d: 2-9                  [1, 8, 20, 20]            16
│    └─LeakyReLU: 2-10                   [1, 8, 20, 20]            --
├─ModuleList: 1-5                        --                        --
│    └─ConvTranspose2d: 2-11             [1, 3, 40, 40]            99
==========================================================================================
Total params: 11,923
Trainable params: 11,923
Non-trainable params: 0
Total mult-adds (Units.MEGABYTES): 4.86
==========================================================================================
Input size (MB): 0.49
Forward/backward pass size (MB): 0.29
Params size (MB): 0.05
Estimated Total Size (MB): 0.83
…
