…
Epoch 5/10 | Loss: 0.0000 | Train Acc: 0.8348 | Val Acc: 0.9484 | Val IoU: 0.8738 | LR: 0.001000 | Time: 65.17s
Epoch 6/10 | Loss: 0.0000 | Train Acc: 0.8359 | Val Acc: 0.9532 | Val IoU: 0.8821 | LR: 0.001000 | Time: 63.49s
🏁 Training completed in 389.81 seconds.
🛑 Stopped at epoch 7
Best model retained: results\l1d\02_04_19_18_acc_0.9548_EPOCH_2.pth


MODEL SUMMARY:

==========================================================================================
Layer (type:depth-idx)                   Output Shape              Param #
==========================================================================================
WaveletCNN                               [1, 4, 16, 16]            --
├─ModuleList: 1-1                        --                        --
│    └─DWT1DForward: 2-1                 [256, 4, 1]               --
├─ModuleList: 1-2                        --                        --
│    └─Conv2d: 2-2                       [1, 8, 16, 16]            104
├─ModuleList: 1-3                        --                        --
│    └─Sequential: 2-3                   [1, 8, 16, 16]            --
│    │    └─Conv2d: 3-1                  [1, 8, 16, 16]            584
│    │    └─BatchNorm2d: 3-2             [1, 8, 16, 16]            16
│    │    └─LeakyReLU: 3-3               [1, 8, 16, 16]            --
│    │    └─Dropout: 3-4                 [1, 8, 16, 16]            --
├─Sequential: 1-4                        [1, 4, 16, 16]            --
│    └─Conv2d: 2-4                       [1, 4, 16, 16]            292
│    └─BatchNorm2d: 2-5                  [1, 4, 16, 16]            8
│    └─LeakyReLU: 2-6                    [1, 4, 16, 16]            --
│    └─Dropout: 2-7                      [1, 4, 16, 16]            --
│    └─Conv2d: 2-8                       [1, 4, 16, 16]            148
│    └─BatchNorm2d: 2-9                  [1, 4, 16, 16]            8
│    └─LeakyReLU: 2-10                   [1, 4, 16, 16]            --
│    └─Dropout: 2-11                     [1, 4, 16, 16]            --
==========================================================================================
Total params: 1,160
Trainable params: 1,160
Non-trainable params: 0
Total mult-adds (Units.MEGABYTES): 0.29
==========================================================================================
Input size (MB): 0.00
Forward/backward pass size (MB): 0.08
Params size (MB): 0.00
Estimated Total Size (MB): 0.09
…
