…
Epoch 12/50 | Loss: 0.0000 | Train Acc: 0.9584 | Val Acc: 0.9600 | Val IoU: 0.8991 | LR: 0.000250 | Time: 69.99s
Epoch 13/50 | Loss: 0.0000 | Train Acc: 0.9586 | Val Acc: 0.9638 | Val IoU: 0.9064 | LR: 0.000250 | Time: 69.49s
🏁 Training completed in 916.20 seconds.
🛑 Stopped at epoch 14
Best model retained: results\l1d\02_04_15_31_acc_0.9644_EPOCH_3.pth


MODEL SUMMARY:

==========================================================================================
Layer (type:depth-idx)                   Output Shape              Param #
==========================================================================================
WaveletCNN                               [1, 4, 16, 16]            --
├─ModuleList: 1-1                        --                        --
│    └─DWT1DForward: 2-1                 [256, 10, 1]              --
├─ModuleList: 1-2                        --                        --
│    └─Conv2d: 2-2                       [1, 8, 16, 16]            248
├─ModuleList: 1-3                        --                        --
│    └─Sequential: 2-3                   [1, 8, 16, 16]            --
│    │    └─Conv2d: 3-1                  [1, 8, 16, 16]            584
│    │    └─BatchNorm2d: 3-2             [1, 8, 16, 16]            16
│    │    └─LeakyReLU: 3-3               [1, 8, 16, 16]            --
│    │    └─Dropout: 3-4                 [1, 8, 16, 16]            --
├─Sequential: 1-4                        [1, 4, 16, 16]            --
│    └─Conv2d: 2-4                       [1, 4, 16, 16]            292
│    └─BatchNorm2d: 2-5                  [1, 4, 16, 16]            8
│    └─LeakyReLU: 2-6                    [1, 4, 16, 16]            --
│    └─Dropout: 2-7                      [1, 4, 16, 16]            --
│    └─Conv2d: 2-8                       [1, 4, 16, 16]            148
│    └─BatchNorm2d: 2-9                  [1, 4, 16, 16]            8
│    └─LeakyReLU: 2-10                   [1, 4, 16, 16]            --
==========================================================================================
Total params: 1,304
Trainable params: 1,304
Non-trainable params: 0
Total mult-adds (Units.MEGABYTES): 0.33
==========================================================================================
Input size (MB): 0.01
Forward/backward pass size (MB): 0.08
Params size (MB): 0.01
Estimated Total Size (MB): 0.10
…
