…
BASE CHANNELS = 8
DROPOUT RATE = 0.3

TRAINING OUTPUT:

Epoch 1/1 | Loss: 0.0000 | Train Acc: 0.9527 | Val Acc: 0.9594 | Val IoU: 0.8980 | LR: 0.001000 | Time: 67.75s
🏁 Training completed in 67.77 seconds.
🛑 Stopped at epoch 1
Best model retained: results\l1d\02_04_21_41_acc_0.9594_EPOCH_0.pth


MODEL SUMMARY:

==========================================================================================
Layer (type:depth-idx)                   Output Shape              Param #
==========================================================================================
WaveletCNN                               [1, 4, 8, 8]              --
├─ModuleList: 1-1                        --                        --
│    └─DWT1DForward: 2-1                 [64, 20, 1]               --
├─ModuleList: 1-2                        --                        --
│    └─Conv2d: 2-2                       [1, 8, 8, 8]              488
├─ModuleList: 1-3                        --                        --
│    └─Sequential: 2-3                   [1, 8, 8, 8]              --
│    │    └─Conv2d: 3-1                  [1, 8, 8, 8]              584
│    │    └─BatchNorm2d: 3-2             [1, 8, 8, 8]              16
│    │    └─LeakyReLU: 3-3               [1, 8, 8, 8]              --
│    │    └─Dropout: 3-4                 [1, 8, 8, 8]              --
├─Sequential: 1-4                        [1, 4, 8, 8]              --
│    └─Conv2d: 2-4                       [1, 4, 8, 8]              292
│    └─BatchNorm2d: 2-5                  [1, 4, 8, 8]              8
│    └─LeakyReLU: 2-6                    [1, 4, 8, 8]              --
│    └─Dropout: 2-7                      [1, 4, 8, 8]              --
│    └─Conv2d: 2-8                       [1, 4, 8, 8]              148
│    └─BatchNorm2d: 2-9                  [1, 4, 8, 8]              8
│    └─LeakyReLU: 2-10                   [1, 4, 8, 8]              --
==========================================================================================
Total params: 1,544
Trainable params: 1,544
Non-trainable params: 0
Total mult-adds (Units.MEGABYTES): 0.10
==========================================================================================
Input size (MB): 0.01
Forward/backward pass size (MB): 0.02
Params size (MB): 0.01
Estimated Total Size (MB): 0.03
…
