…
Epoch 49/100 | Loss: 0.0000 | Train Acc: 0.9614 | Val Acc: 0.9681 | Val IoU: 0.9189 | LR: 0.000002 | Time: 71.24s
Epoch 50/100 | Loss: 0.0000 | Train Acc: 0.9614 | Val Acc: 0.9691 | Val IoU: 0.9214 | LR: 0.000001 | Time: 72.29s
🏁 Training completed in 3678.33 seconds.
🛑 Stopped at epoch 51
Best model retained: None


MODEL SUMMARY:

==========================================================================================
Layer (type:depth-idx)                   Output Shape              Param #
==========================================================================================
WaveletCNN                               [1, 4, 16, 16]            --
├─ModuleList: 1-1                        --                        --
│    └─DWT1DForward: 2-1                 [256, 20, 1]              --
├─ModuleList: 1-2                        --                        --
│    └─Conv2d: 2-2                       [1, 8, 16, 16]            488
├─ModuleList: 1-3                        --                        --
│    └─Sequential: 2-3                   [1, 8, 16, 16]            --
│    │    └─Conv2d: 3-1                  [1, 8, 16, 16]            584
│    │    └─BatchNorm2d: 3-2             [1, 8, 16, 16]            16
│    │    └─LeakyReLU: 3-3               [1, 8, 16, 16]            --
│    │    └─Dropout: 3-4                 [1, 8, 16, 16]            --
├─Sequential: 1-4                        [1, 4, 16, 16]            --
│    └─Conv2d: 2-4                       [1, 4, 16, 16]            292
│    └─BatchNorm2d: 2-5                  [1, 4, 16, 16]            8
│    └─LeakyReLU: 2-6                    [1, 4, 16, 16]            --
│    └─Dropout: 2-7                      [1, 4, 16, 16]            --
│    └─Conv2d: 2-8                       [1, 4, 16, 16]            148
│    └─BatchNorm2d: 2-9                  [1, 4, 16, 16]            8
│    └─LeakyReLU: 2-10                   [1, 4, 16, 16]            --
==========================================================================================
Total params: 1,544
Trainable params: 1,544
Non-trainable params: 0
Total mult-adds (Units.MEGABYTES): 0.39
==========================================================================================
Input size (MB): 0.02
Forward/backward pass size (MB): 0.08
Params size (MB): 0.01
Estimated Total Size (MB): 0.11
…
