…
Epoch 2/50 | Loss: 0.0000 | Train Acc: 0.9642 | Val Acc: 0.9677 | Val IoU: 0.9173 | LR: 0.001000 | Time: 116.91s
⚠️ Training interrupted: Detected more unique values in `preds` than expected. Expected only 3 but found 4 in `target`.
🏁 Training completed in 412.43 seconds.
🛑 Stopped at epoch 3
Best model retained: results\l1d\02_04_14_46_acc_0.9684_EPOCH_0.pth


MODEL SUMMARY:

==========================================================================================
Layer (type:depth-idx)                   Output Shape              Param #
==========================================================================================
WaveletCNN                               [1, 4, 16, 16]            --
├─ModuleList: 1-1                        --                        --
│    └─DWT1DForward: 2-1                 [256, 70, 1]              --
├─ModuleList: 1-2                        --                        --
│    └─Conv2d: 2-2                       [1, 8, 16, 16]            1,688
├─ModuleList: 1-3                        --                        --
│    └─Sequential: 2-3                   [1, 8, 16, 16]            --
│    │    └─Conv2d: 3-1                  [1, 8, 16, 16]            584
│    │    └─BatchNorm2d: 3-2             [1, 8, 16, 16]            16
│    │    └─LeakyReLU: 3-3               [1, 8, 16, 16]            --
│    │    └─Dropout: 3-4                 [1, 8, 16, 16]            --
├─Sequential: 1-4                        [1, 4, 16, 16]            --
│    └─Conv2d: 2-4                       [1, 4, 16, 16]            292
│    └─BatchNorm2d: 2-5                  [1, 4, 16, 16]            8
│    └─LeakyReLU: 2-6                    [1, 4, 16, 16]            --
│    └─Dropout: 2-7                      [1, 4, 16, 16]            --
│    └─Conv2d: 2-8                       [1, 4, 16, 16]            148
│    └─BatchNorm2d: 2-9                  [1, 4, 16, 16]            8
│    └─LeakyReLU: 2-10                   [1, 4, 16, 16]            --
==========================================================================================
Total params: 2,744
Trainable params: 2,744
Non-trainable params: 0
Total mult-adds (Units.MEGABYTES): 0.69
==========================================================================================
Input size (MB): 0.07
Forward/backward pass size (MB): 0.08
Params size (MB): 0.01
Estimated Total Size (MB): 0.16
…
