…
Epoch 2/50 | Loss: 0.0000 | Train Acc: 0.8941 | Val Acc: 0.9045 | Val IoU: 0.7814 | LR: 0.001000 | Time: 93.04s
Epoch 3/50 | Loss: 0.0000 | Train Acc: 0.8993 | Val Acc: 0.8624 | Val IoU: 0.7232 | LR: 0.001000 | Time: 94.41s
🏁 Training completed in 335.30 seconds.
🛑 Stopped at epoch 4
Best model retained: results\l1d\02_04_13_25_acc_0.9045_EPOCH_1.pth


MODEL SUMMARY:

==========================================================================================
Layer (type:depth-idx)                   Output Shape              Param #
==========================================================================================
WaveletCNN                               [1, 3, 16, 16]            --
├─ModuleList: 1-1                        --                        --
│    └─DWT1DForward: 2-1                 [256, 50, 1]              --
├─ModuleList: 1-2                        --                        --
│    └─Conv2d: 2-2                       [1, 8, 16, 16]            1,208
├─ModuleList: 1-3                        --                        --
│    └─Sequential: 2-3                   [1, 8, 16, 16]            --
│    │    └─Conv2d: 3-1                  [1, 8, 16, 16]            584
│    │    └─BatchNorm2d: 3-2             [1, 8, 16, 16]            16
│    │    └─LeakyReLU: 3-3               [1, 8, 16, 16]            --
│    │    └─Dropout: 3-4                 [1, 8, 16, 16]            --
├─Sequential: 1-4                        [1, 3, 16, 16]            --
│    └─Conv2d: 2-4                       [1, 4, 16, 16]            292
│    └─BatchNorm2d: 2-5                  [1, 4, 16, 16]            8
│    └─LeakyReLU: 2-6                    [1, 4, 16, 16]            --
│    └─Conv2d: 2-7                       [1, 3, 16, 16]            15
==========================================================================================
Total params: 2,123
Trainable params: 2,123
Non-trainable params: 0
Total mult-adds (Units.MEGABYTES): 0.54
==========================================================================================
Input size (MB): 0.05
Forward/backward pass size (MB): 0.07
Params size (MB): 0.01
Estimated Total Size (MB): 0.13
…
