…
Epoch 37/50 | Loss: 0.0000 | Train Acc: 0.9023 | Val Acc: 0.8707 | Val IoU: 0.7283 | LR: 0.000004 | Time: 85.01s
⏹️ Early stopping triggered at epoch 37. Best val_acc: 0.8809
🏁 Training completed in 3142.29 seconds.
🛑 Stopped at epoch 37
Best model retained: results\l1d\02_04_13_06_acc_0.8809_EPOCH_6.pth


MODEL SUMMARY:

==========================================================================================
Layer (type:depth-idx)                   Output Shape              Param #
==========================================================================================
WaveletCNN                               [1, 3, 16, 16]            --
├─ModuleList: 1-1                        --                        --
│    └─DWT1DForward: 2-1                 [256, 30, 1]              --
├─ModuleList: 1-2                        --                        --
│    └─Conv2d: 2-2                       [1, 8, 16, 16]            728
├─ModuleList: 1-3                        --                        --
│    └─Sequential: 2-3                   [1, 8, 16, 16]            --
│    │    └─Conv2d: 3-1                  [1, 8, 16, 16]            584
│    │    └─BatchNorm2d: 3-2             [1, 8, 16, 16]            16
│    │    └─LeakyReLU: 3-3               [1, 8, 16, 16]            --
│    │    └─Dropout: 3-4                 [1, 8, 16, 16]            --
├─Sequential: 1-4                        [1, 3, 16, 16]            --
│    └─Conv2d: 2-4                       [1, 4, 16, 16]            292
│    └─BatchNorm2d: 2-5                  [1, 4, 16, 16]            8
│    └─LeakyReLU: 2-6                    [1, 4, 16, 16]            --
│    └─Conv2d: 2-7                       [1, 3, 16, 16]            15
==========================================================================================
Total params: 1,643
Trainable params: 1,643
Non-trainable params: 0
Total mult-adds (Units.MEGABYTES): 0.41
==========================================================================================
Input size (MB): 0.03
Forward/backward pass size (MB): 0.07
Params size (MB): 0.01
Estimated Total Size (MB): 0.11
…
