…
Epoch 9/10 | Loss: 0.0000 | Train Acc: 0.9650 | Val Acc: 0.9480 | Val IoU: 0.8696 | LR: 0.000500 | Time: 153.21s
Epoch 10/10 | Loss: 0.0000 | Train Acc: 0.9652 | Val Acc: 0.9581 | Val IoU: 0.8942 | LR: 0.000250 | Time: 156.72s
🏁 Training completed in 1631.45 seconds.
🛑 Stopped at epoch 10
Best model retained: results\l1d\02_04_12_06_acc_0.9649_EPOCH_5.pth


MODEL SUMMARY:

==========================================================================================
Layer (type:depth-idx)                   Output Shape              Param #
==========================================================================================
WaveletCNN                               [1, 3, 16, 16]            --
├─ModuleList: 1-1                        --                        --
│    └─DWT1DForward: 2-1                 [256, 120, 1]             --
├─ModuleList: 1-2                        --                        --
│    └─Conv2d: 2-2                       [1, 8, 16, 16]            2,888
├─ModuleList: 1-3                        --                        --
│    └─Sequential: 2-3                   [1, 8, 16, 16]            --
│    │    └─Conv2d: 3-1                  [1, 8, 16, 16]            584
│    │    └─BatchNorm2d: 3-2             [1, 8, 16, 16]            16
│    │    └─LeakyReLU: 3-3               [1, 8, 16, 16]            --
│    │    └─Dropout: 3-4                 [1, 8, 16, 16]            --
├─Sequential: 1-4                        [1, 3, 16, 16]            --
│    └─Conv2d: 2-4                       [1, 4, 16, 16]            292
│    └─BatchNorm2d: 2-5                  [1, 4, 16, 16]            8
│    └─LeakyReLU: 2-6                    [1, 4, 16, 16]            --
│    └─Conv2d: 2-7                       [1, 3, 16, 16]            15
==========================================================================================
Total params: 3,803
Trainable params: 3,803
Non-trainable params: 0
Total mult-adds (Units.MEGABYTES): 0.97
==========================================================================================
Input size (MB): 0.12
Forward/backward pass size (MB): 0.07
Params size (MB): 0.02
Estimated Total Size (MB): 0.21
…
