…
Epoch 9/10 | Train Acc: 0.9816 | Val Acc: 0.9703 | Val IoU: 0.8796 | LR: 0.001000 | Time: 146.31s
Epoch 10/10 | Train Acc: 0.9818 | Val Acc: 0.9682 | Val IoU: 0.8672 | LR: 0.001000 | Time: 147.15s
🏁 Training completed in 1471.31 seconds.
🛑 Stopped at epoch 10
Best model retained: results\l1d\19_03_17_25_acc_0.9734_EPOCH_7.pth


MODEL SUMMARY:

==========================================================================================
Layer (type:depth-idx)                   Output Shape              Param #
==========================================================================================
WaveletCNN                               [1, 3, 32, 32]            --
├─ModuleList: 1-4                        --                        --
│    └─DWTForward: 2-1                   [1, 120, 16, 16]          --
├─ModuleList: 1-5                        --                        (recursive)
│    └─Conv2d: 2-2                       [1, 16, 16, 16]           7,696
├─ModuleList: 1-6                        --                        (recursive)
│    └─Sequential: 2-3                   [1, 16, 16, 16]           --
│    │    └─Conv2d: 3-1                  [1, 16, 16, 16]           2,320
│    │    └─BatchNorm2d: 3-2             [1, 16, 16, 16]           32
│    │    └─LeakyReLU: 3-3               [1, 16, 16, 16]           --
│    │    └─Dropout: 3-4                 [1, 16, 16, 16]           --
├─ModuleList: 1-4                        --                        --
│    └─DWTForward: 2-4                   [1, 120, 8, 8]            --
├─ModuleList: 1-5                        --                        (recursive)
│    └─Conv2d: 2-5                       [1, 32, 8, 8]             15,904
├─ModuleList: 1-6                        --                        (recursive)
│    └─Sequential: 2-6                   [1, 32, 8, 8]             --
│    │    └─Conv2d: 3-5                  [1, 32, 8, 8]             9,248
│    │    └─BatchNorm2d: 3-6             [1, 32, 8, 8]             64
│    │    └─LeakyReLU: 3-7               [1, 32, 8, 8]             --
│    │    └─Dropout: 3-8                 [1, 32, 8, 8]             --
├─Sequential: 1-7                        [1, 24, 8, 8]             --
│    └─Conv2d: 2-7                       [1, 24, 8, 8]             10,392
│    └─BatchNorm2d: 2-8                  [1, 24, 8, 8]             48
│    └─LeakyReLU: 2-9                    [1, 24, 8, 8]             --
│    └─Dropout: 2-10                     [1, 24, 8, 8]             --
│    └─Conv2d: 2-11                      [1, 24, 8, 8]             5,208
│    └─BatchNorm2d: 2-12                 [1, 24, 8, 8]             48
│    └─LeakyReLU: 2-13                   [1, 24, 8, 8]             --
├─ModuleList: 1-8                        --                        --
│    └─ConvTranspose2d: 2-14             [1, 12, 16, 16]           1,164
│    └─ConvTranspose2d: 2-15             [1, 3, 32, 32]            147
==========================================================================================
Total params: 52,271
Trainable params: 52,271
Non-trainable params: 0
Total mult-adds (Units.MEGABYTES): 5.62
==========================================================================================
Input size (MB): 0.49
Forward/backward pass size (MB): 0.25
Params size (MB): 0.21
Estimated Total Size (MB): 0.95
…
