…
Epoch 10/10 | Loss: 0.0000 | Train Acc: 0.9788 | Val Acc: 0.9617 | Val IoU: 0.8653 | LR: 0.000500 | Time: 142.09s
⏹️ Early stopping triggered at epoch 10. Best val_acc: 0.9631
🏁 Training completed in 1442.79 seconds.
🛑 Stopped at epoch 10
Best model retained: results\l1d\19_03_18_21_acc_0.9631_EPOCH_3.pth


MODEL SUMMARY:

==========================================================================================
Layer (type:depth-idx)                   Output Shape              Param #
==========================================================================================
WaveletCNN                               [1, 3, 32, 32]            --
├─ModuleList: 1-1                        --                        --
│    └─DWTForward: 2-1                   [1, 120, 16, 16]          --
├─ModuleList: 1-2                        --                        --
│    └─Conv2d: 2-2                       [1, 16, 16, 16]           7,696
├─ModuleList: 1-3                        --                        --
│    └─Sequential: 2-3                   [1, 16, 16, 16]           --
│    │    └─Conv2d: 3-1                  [1, 16, 16, 16]           2,320
│    │    └─BatchNorm2d: 3-2             [1, 16, 16, 16]           32
│    │    └─LeakyReLU: 3-3               [1, 16, 16, 16]           --
│    │    └─Dropout: 3-4                 [1, 16, 16, 16]           --
├─Sequential: 1-4                        [1, 8, 16, 16]            --
│    └─Conv2d: 2-4                       [1, 8, 16, 16]            1,160
│    └─BatchNorm2d: 2-5                  [1, 8, 16, 16]            16
│    └─LeakyReLU: 2-6                    [1, 8, 16, 16]            --
│    └─Dropout: 2-7                      [1, 8, 16, 16]            --
│    └─Conv2d: 2-8                       [1, 8, 16, 16]            584
│    └─BatchNorm2d: 2-9                  [1, 8, 16, 16]            16
│    └─LeakyReLU: 2-10                   [1, 8, 16, 16]            --
├─ModuleList: 1-5                        --                        --
│    └─ConvTranspose2d: 2-11             [1, 3, 32, 32]            99
==========================================================================================
Total params: 11,923
Trainable params: 11,923
Non-trainable params: 0
Total mult-adds (Units.MEGABYTES): 3.11
==========================================================================================
Input size (MB): 0.49
Forward/backward pass size (MB): 0.19
Params size (MB): 0.05
Estimated Total Size (MB): 0.73
…
