…
['Epoch 1/5 | Loss: 0.0000 | Train Acc: 0.9422 | Val Acc: 0.9266 | LR: 0.001000 | Time: 201.78s', 'Epoch 2/5 | Loss: 0.0000 | Train Acc: 0.9566 | Val Acc: 0.9199 | LR: 0.001000 | Time: 207.99s', '🏁 Training completed in 418.36 seconds.', '🛑 Stopped at epoch 3', 'Best model retained: results\\l1d\\epoch_0_acc_0.9266.pth']

MODEL SUMMARY:

==========================================================================================
Layer (type:depth-idx)                   Output Shape              Param #
==========================================================================================
WaveletCNN                               [1, 3, 32, 32]            --
├─ModuleList: 1-4                        --                        --
│    └─DWTForward: 2-1                   [1, 30, 16, 16]           --
├─ModuleList: 1-5                        --                        (recursive)
│    └─Conv2d: 2-2                       [1, 16, 16, 16]           1,936
├─ModuleList: 1-6                        --                        (recursive)
│    └─Sequential: 2-3                   [1, 16, 16, 16]           --
│    │    └─Conv2d: 3-1                  [1, 16, 16, 16]           2,320
│    │    └─BatchNorm2d: 3-2             [1, 16, 16, 16]           32
│    │    └─ReLU: 3-3                    [1, 16, 16, 16]           --
│    │    └─Dropout: 3-4                 [1, 16, 16, 16]           --
├─ModuleList: 1-4                        --                        --
│    └─DWTForward: 2-4                   [1, 30, 8, 8]             --
├─ModuleList: 1-5                        --                        (recursive)
│    └─Conv2d: 2-5                       [1, 32, 8, 8]             4,384
├─ModuleList: 1-6                        --                        (recursive)
│    └─Sequential: 2-6                   [1, 32, 8, 8]             --
│    │    └─Conv2d: 3-5                  [1, 32, 8, 8]             9,248
│    │    └─BatchNorm2d: 3-6             [1, 32, 8, 8]             64
│    │    └─ReLU: 3-7                    [1, 32, 8, 8]             --
│    │    └─Dropout: 3-8                 [1, 32, 8, 8]             --
├─Sequential: 1-7                        [1, 24, 8, 8]             --
│    └─Conv2d: 2-7                       [1, 24, 8, 8]             10,392
│    └─BatchNorm2d: 2-8                  [1, 24, 8, 8]             48
│    └─ReLU: 2-9                         [1, 24, 8, 8]             --
│    └─Dropout: 2-10                     [1, 24, 8, 8]             --
│    └─Conv2d: 2-11                      [1, 24, 8, 8]             5,208
│    └─BatchNorm2d: 2-12                 [1, 24, 8, 8]             48
│    └─ReLU: 2-13                        [1, 24, 8, 8]             --
├─ModuleList: 1-8                        --                        --
│    └─ConvTranspose2d: 2-14             [1, 12, 16, 16]           1,164
│    └─ConvTranspose2d: 2-15             [1, 3, 32, 32]            147
==========================================================================================
Total params: 34,991
Trainable params: 34,991
Non-trainable params: 0
Total mult-adds (Units.MEGABYTES): 3.41
==========================================================================================
Input size (MB): 0.12
Forward/backward pass size (MB): 0.25
Params size (MB): 0.14
Estimated Total Size (MB): 0.51
…
