…
Epoch 9/10 | Loss: 0.0000 | Train Acc: 0.8942 | Val Acc: 0.8918 | Val IoU: 0.6345 | LR: 0.001000 | Time: 235.78s
Epoch 10/10 | Loss: 0.0000 | Train Acc: 0.8944 | Val Acc: 0.8881 | Val IoU: 0.6412 | LR: 0.001000 | Time: 235.63s
🏁 Training completed in 2325.73 seconds.
🛑 Stopped at epoch 10
Best model retained: results\l1d\20_03_11_25_acc_0.8938_EPOCH_7.pth


MODEL SUMMARY:

==========================================================================================
Layer (type:depth-idx)                   Output Shape              Param #
==========================================================================================
WaveletCNN                               [1, 3, 32, 32]            --
├─ModuleList: 1-1                        --                        --
│    └─DWTForward: 2-1                   [1, 120, 47, 47]          --
├─ModuleList: 1-2                        --                        --
│    └─Conv2d: 2-2                       [1, 16, 47, 47]           7,696
├─ModuleList: 1-3                        --                        --
│    └─Sequential: 2-3                   [1, 16, 47, 47]           --
│    │    └─Conv2d: 3-1                  [1, 16, 47, 47]           2,320
│    │    └─BatchNorm2d: 3-2             [1, 16, 47, 47]           32
│    │    └─LeakyReLU: 3-3               [1, 16, 47, 47]           --
│    │    └─Dropout: 3-4                 [1, 16, 47, 47]           --
├─Sequential: 1-4                        [1, 8, 47, 47]            --
│    └─Conv2d: 2-4                       [1, 8, 47, 47]            1,160
│    └─BatchNorm2d: 2-5                  [1, 8, 47, 47]            16
│    └─LeakyReLU: 2-6                    [1, 8, 47, 47]            --
│    └─Dropout: 2-7                      [1, 8, 47, 47]            --
│    └─Conv2d: 2-8                       [1, 8, 47, 47]            584
│    └─BatchNorm2d: 2-9                  [1, 8, 47, 47]            16
│    └─LeakyReLU: 2-10                   [1, 8, 47, 47]            --
├─ModuleList: 1-5                        --                        --
│    └─ConvTranspose2d: 2-11             [1, 3, 94, 94]            99
==========================================================================================
Total params: 11,923
Trainable params: 11,923
Non-trainable params: 0
Total mult-adds (Units.MEGABYTES): 26.85
==========================================================================================
Input size (MB): 0.49
Forward/backward pass size (MB): 1.63
Params size (MB): 0.05
Estimated Total Size (MB): 2.17
…
