…
Epoch 7/10 | Loss: 0.0000 | Train Acc: 0.9719 | Val Acc: 0.9369 | Val IoU: 0.8548 | LR: 0.000500 | Time: 141.66s
⏹️ Early stopping triggered at epoch 7. Best val_acc: 0.9496
🏁 Training completed in 996.93 seconds.
🛑 Stopped at epoch 7
Best model retained: results\l1d\20_03_11_44_acc_0.9496_EPOCH_0.pth


MODEL SUMMARY:

==========================================================================================
Layer (type:depth-idx)                   Output Shape              Param #
==========================================================================================
WaveletCNN                               [1, 3, 32, 32]            --
├─ModuleList: 1-1                        --                        --
│    └─DWTForward: 2-1                   [1, 120, 17, 17]          --
├─ModuleList: 1-2                        --                        --
│    └─Conv2d: 2-2                       [1, 16, 17, 17]           7,696
├─ModuleList: 1-3                        --                        --
│    └─Sequential: 2-3                   [1, 16, 17, 17]           --
│    │    └─Conv2d: 3-1                  [1, 16, 17, 17]           2,320
│    │    └─BatchNorm2d: 3-2             [1, 16, 17, 17]           32
│    │    └─LeakyReLU: 3-3               [1, 16, 17, 17]           --
│    │    └─Dropout: 3-4                 [1, 16, 17, 17]           --
├─Sequential: 1-4                        [1, 8, 17, 17]            --
│    └─Conv2d: 2-4                       [1, 8, 17, 17]            1,160
│    └─BatchNorm2d: 2-5                  [1, 8, 17, 17]            16
│    └─LeakyReLU: 2-6                    [1, 8, 17, 17]            --
│    └─Dropout: 2-7                      [1, 8, 17, 17]            --
│    └─Conv2d: 2-8                       [1, 8, 17, 17]            584
│    └─BatchNorm2d: 2-9                  [1, 8, 17, 17]            16
│    └─LeakyReLU: 2-10                   [1, 8, 17, 17]            --
├─ModuleList: 1-5                        --                        --
│    └─ConvTranspose2d: 2-11             [1, 3, 34, 34]            99
==========================================================================================
Total params: 11,923
Trainable params: 11,923
Non-trainable params: 0
Total mult-adds (Units.MEGABYTES): 3.51
==========================================================================================
Input size (MB): 0.49
Forward/backward pass size (MB): 0.21
Params size (MB): 0.05
Estimated Total Size (MB): 0.75
…
