…
Epoch 27/30 | Loss: 0.0000 | Train Acc: 0.9488 | Val Acc: 0.9732 | Val IoU: 0.9329 | LR: 0.000016 | Time: 110.57s
⏹️ Early stopping triggered at epoch 27. Best val_acc: 0.9775
🏁 Training completed in 2967.11 seconds.
🛑 Stopped at epoch 27
Best model retained: results\h2\21_03_18_14_acc_0.9775_EPOCH_6.pth


MODEL SUMMARY:

==========================================================================================
Layer (type:depth-idx)                   Output Shape              Param #
==========================================================================================
WaveletCNN                               [1, 3, 16, 16]            --
├─ModuleList: 1-1                        --                        --
│    └─DWTForward: 2-1                   [1, 120, 10, 10]          --
├─ModuleList: 1-2                        --                        --
│    └─Conv2d: 2-2                       [1, 16, 10, 10]           7,696
├─ModuleList: 1-3                        --                        --
│    └─Sequential: 2-3                   [1, 16, 10, 10]           --
│    │    └─Conv2d: 3-1                  [1, 16, 10, 10]           2,320
│    │    └─BatchNorm2d: 3-2             [1, 16, 10, 10]           32
│    │    └─LeakyReLU: 3-3               [1, 16, 10, 10]           --
│    │    └─Dropout: 3-4                 [1, 16, 10, 10]           --
├─Sequential: 1-4                        [1, 8, 10, 10]            --
│    └─Conv2d: 2-4                       [1, 8, 10, 10]            1,160
│    └─BatchNorm2d: 2-5                  [1, 8, 10, 10]            16
│    └─LeakyReLU: 2-6                    [1, 8, 10, 10]            --
│    └─Dropout: 2-7                      [1, 8, 10, 10]            --
│    └─Conv2d: 2-8                       [1, 8, 10, 10]            584
│    └─BatchNorm2d: 2-9                  [1, 8, 10, 10]            16
│    └─LeakyReLU: 2-10                   [1, 8, 10, 10]            --
├─ModuleList: 1-5                        --                        --
│    └─ConvTranspose2d: 2-11             [1, 3, 20, 20]            99
==========================================================================================
Total params: 11,923
Trainable params: 11,923
Non-trainable params: 0
Total mult-adds (Units.MEGABYTES): 1.22
==========================================================================================
Input size (MB): 0.12
Forward/backward pass size (MB): 0.07
Params size (MB): 0.05
Estimated Total Size (MB): 0.24
…
