…
Epoch 19/20 | Loss: 0.0000 | Train Acc: 0.9292 | Val Acc: 0.9354 | Val IoU: 0.8405 | LR: 0.000125 | Time: 158.95s
Epoch 20/20 | Loss: 0.0000 | Train Acc: 0.9293 | Val Acc: 0.9344 | Val IoU: 0.8388 | LR: 0.000125 | Time: 159.18s
🏁 Training completed in 3234.82 seconds.
🛑 Stopped at epoch 20
Best model retained: results\l1d\26_03_12_18_acc_0.9378_EPOCH_8.pth


MODEL SUMMARY:

==========================================================================================
Layer (type:depth-idx)                   Output Shape              Param #
==========================================================================================
WaveletCNN                               [1, 3, 16, 16]            --
├─ModuleList: 1-1                        --                        --
│    └─DWTForward: 2-1                   [1, 120, 19, 19]          --
├─ModuleList: 1-2                        --                        --
│    └─Conv2d: 2-2                       [1, 16, 19, 19]           7,696
├─ModuleList: 1-3                        --                        --
│    └─Sequential: 2-3                   [1, 16, 19, 19]           --
│    │    └─Conv2d: 3-1                  [1, 16, 19, 19]           2,320
│    │    └─BatchNorm2d: 3-2             [1, 16, 19, 19]           32
│    │    └─LeakyReLU: 3-3               [1, 16, 19, 19]           --
│    │    └─Dropout: 3-4                 [1, 16, 19, 19]           --
├─Sequential: 1-4                        [1, 8, 19, 19]            --
│    └─Conv2d: 2-4                       [1, 8, 19, 19]            1,160
│    └─BatchNorm2d: 2-5                  [1, 8, 19, 19]            16
│    └─LeakyReLU: 2-6                    [1, 8, 19, 19]            --
│    └─Dropout: 2-7                      [1, 8, 19, 19]            --
│    └─Conv2d: 2-8                       [1, 8, 19, 19]            584
│    └─BatchNorm2d: 2-9                  [1, 8, 19, 19]            16
│    └─LeakyReLU: 2-10                   [1, 8, 19, 19]            --
├─ModuleList: 1-5                        --                        --
│    └─ConvTranspose2d: 2-11             [1, 3, 38, 38]            99
==========================================================================================
Total params: 11,923
Trainable params: 11,923
Non-trainable params: 0
Total mult-adds (Units.MEGABYTES): 4.39
==========================================================================================
Input size (MB): 0.12
Forward/backward pass size (MB): 0.27
Params size (MB): 0.05
Estimated Total Size (MB): 0.44
…
