…
Epoch 19/20 | Loss: 0.0000 | Train Acc: 0.9443 | Val Acc: 0.9382 | Val IoU: 0.8496 | LR: 0.000250 | Time: 162.26s
Epoch 20/20 | Loss: 0.0000 | Train Acc: 0.9446 | Val Acc: 0.9438 | Val IoU: 0.8614 | LR: 0.000125 | Time: 163.57s
🏁 Training completed in 3331.92 seconds.
🛑 Stopped at epoch 20
Best model retained: results\l1d\28_03_10_57_acc_0.9459_EPOCH_15.pth


MODEL SUMMARY:

==========================================================================================
Layer (type:depth-idx)                   Output Shape              Param #
==========================================================================================
WaveletCNN                               [1, 3, 16, 16]            --
├─ModuleList: 1-1                        --                        --
│    └─DWTForward: 2-1                   [1, 120, 15, 15]          --
├─ModuleList: 1-2                        --                        --
│    └─Conv2d: 2-2                       [1, 16, 15, 15]           7,696
├─ModuleList: 1-3                        --                        --
│    └─Sequential: 2-3                   [1, 16, 15, 15]           --
│    │    └─Conv2d: 3-1                  [1, 16, 15, 15]           2,320
│    │    └─BatchNorm2d: 3-2             [1, 16, 15, 15]           32
│    │    └─LeakyReLU: 3-3               [1, 16, 15, 15]           --
│    │    └─Dropout: 3-4                 [1, 16, 15, 15]           --
├─Sequential: 1-4                        [1, 8, 15, 15]            --
│    └─Conv2d: 2-4                       [1, 8, 15, 15]            1,160
│    └─BatchNorm2d: 2-5                  [1, 8, 15, 15]            16
│    └─LeakyReLU: 2-6                    [1, 8, 15, 15]            --
│    └─Dropout: 2-7                      [1, 8, 15, 15]            --
│    └─Conv2d: 2-8                       [1, 8, 15, 15]            584
│    └─BatchNorm2d: 2-9                  [1, 8, 15, 15]            16
│    └─LeakyReLU: 2-10                   [1, 8, 15, 15]            --
├─ModuleList: 1-5                        --                        --
│    └─ConvTranspose2d: 2-11             [1, 3, 30, 30]            99
==========================================================================================
Total params: 11,923
Trainable params: 11,923
Non-trainable params: 0
Total mult-adds (Units.MEGABYTES): 2.74
==========================================================================================
Input size (MB): 0.12
Forward/backward pass size (MB): 0.17
Params size (MB): 0.05
Estimated Total Size (MB): 0.34
…
