…
Epoch 19/20 | Loss: 0.0000 | Train Acc: 0.9608 | Val Acc: 0.9422 | Val IoU: 0.8598 | LR: 0.000063 | Time: 155.72s
Epoch 20/20 | Loss: 0.0000 | Train Acc: 0.9608 | Val Acc: 0.9401 | Val IoU: 0.8557 | LR: 0.000063 | Time: 147.41s
🏁 Training completed in 3090.25 seconds.
🛑 Stopped at epoch 20
Best model retained: results\l1d\28_03_09_31_acc_0.9514_EPOCH_4.pth


MODEL SUMMARY:

==========================================================================================
Layer (type:depth-idx)                   Output Shape              Param #
==========================================================================================
WaveletCNN                               [1, 3, 16, 16]            --
├─ModuleList: 1-1                        --                        --
│    └─DWTForward: 2-1                   [1, 120, 11, 11]          --
├─ModuleList: 1-2                        --                        --
│    └─Conv2d: 2-2                       [1, 16, 11, 11]           7,696
├─ModuleList: 1-3                        --                        --
│    └─Sequential: 2-3                   [1, 16, 11, 11]           --
│    │    └─Conv2d: 3-1                  [1, 16, 11, 11]           2,320
│    │    └─BatchNorm2d: 3-2             [1, 16, 11, 11]           32
│    │    └─LeakyReLU: 3-3               [1, 16, 11, 11]           --
│    │    └─Dropout: 3-4                 [1, 16, 11, 11]           --
├─Sequential: 1-4                        [1, 8, 11, 11]            --
│    └─Conv2d: 2-4                       [1, 8, 11, 11]            1,160
│    └─BatchNorm2d: 2-5                  [1, 8, 11, 11]            16
│    └─LeakyReLU: 2-6                    [1, 8, 11, 11]            --
│    └─Dropout: 2-7                      [1, 8, 11, 11]            --
│    └─Conv2d: 2-8                       [1, 8, 11, 11]            584
│    └─BatchNorm2d: 2-9                  [1, 8, 11, 11]            16
│    └─LeakyReLU: 2-10                   [1, 8, 11, 11]            --
├─ModuleList: 1-5                        --                        --
│    └─ConvTranspose2d: 2-11             [1, 3, 22, 22]            99
==========================================================================================
Total params: 11,923
Trainable params: 11,923
Non-trainable params: 0
Total mult-adds (Units.MEGABYTES): 1.47
==========================================================================================
Input size (MB): 0.12
Forward/backward pass size (MB): 0.09
Params size (MB): 0.05
Estimated Total Size (MB): 0.26
…
