…
Epoch 9/10 | Loss: 0.0000 | Train Acc: 0.9538 | Val Acc: 0.9452 | Val IoU: 0.8605 | LR: 0.000500 | Time: 159.85s
Epoch 10/10 | Loss: 0.0000 | Train Acc: 0.9543 | Val Acc: 0.9404 | Val IoU: 0.8533 | LR: 0.000250 | Time: 159.78s
🏁 Training completed in 1597.36 seconds.
🛑 Stopped at epoch 10
Best model retained: results\l1d\28_03_21_05_acc_0.9466_EPOCH_5.pth


MODEL SUMMARY:

==========================================================================================
Layer (type:depth-idx)                   Output Shape              Param #
==========================================================================================
WaveletCNN                               [1, 3, 16, 16]            --
├─ModuleList: 1-1                        --                        --
│    └─DWTForward: 2-1                   [1, 120, 12, 12]          --
├─ModuleList: 1-2                        --                        --
│    └─Conv2d: 2-2                       [1, 16, 12, 12]           7,696
├─ModuleList: 1-3                        --                        --
│    └─Sequential: 2-3                   [1, 16, 12, 12]           --
│    │    └─Conv2d: 3-1                  [1, 16, 12, 12]           2,320
│    │    └─BatchNorm2d: 3-2             [1, 16, 12, 12]           32
│    │    └─LeakyReLU: 3-3               [1, 16, 12, 12]           --
│    │    └─Dropout: 3-4                 [1, 16, 12, 12]           --
├─Sequential: 1-4                        [1, 8, 12, 12]            --
│    └─Conv2d: 2-4                       [1, 8, 12, 12]            1,160
│    └─BatchNorm2d: 2-5                  [1, 8, 12, 12]            16
│    └─LeakyReLU: 2-6                    [1, 8, 12, 12]            --
│    └─Dropout: 2-7                      [1, 8, 12, 12]            --
│    └─Conv2d: 2-8                       [1, 8, 12, 12]            584
│    └─BatchNorm2d: 2-9                  [1, 8, 12, 12]            16
│    └─LeakyReLU: 2-10                   [1, 8, 12, 12]            --
├─ModuleList: 1-5                        --                        --
│    └─ConvTranspose2d: 2-11             [1, 3, 24, 24]            99
==========================================================================================
Total params: 11,923
Trainable params: 11,923
Non-trainable params: 0
Total mult-adds (Units.MEGABYTES): 1.75
==========================================================================================
Input size (MB): 0.12
Forward/backward pass size (MB): 0.11
Params size (MB): 0.05
Estimated Total Size (MB): 0.28
…
