…
Epoch 3/20 | Loss: 0.0000 | Train Acc: 0.8108 | Val Acc: 0.8305 | Val IoU: 0.6416 | LR: 0.000500 | Time: 171.82s
Epoch 4/20 | Loss: 0.0000 | Train Acc: 0.8171 | Val Acc: 0.8687 | Val IoU: 0.7126 | LR: 0.000500 | Time: 172.29s
🏁 Training completed in 886.50 seconds.
🛑 Stopped at epoch 5
Best model retained: results\l1d\28_03_12_36_acc_0.8687_EPOCH_3.pth


MODEL SUMMARY:

==========================================================================================
Layer (type:depth-idx)                   Output Shape              Param #
==========================================================================================
WaveletCNN                               [1, 3, 16, 16]            --
├─ModuleList: 1-1                        --                        --
│    └─DWTForward: 2-1                   [1, 120, 23, 23]          --
├─ModuleList: 1-2                        --                        --
│    └─Conv2d: 2-2                       [1, 16, 23, 23]           7,696
├─ModuleList: 1-3                        --                        --
│    └─Sequential: 2-3                   [1, 16, 23, 23]           --
│    │    └─Conv2d: 3-1                  [1, 16, 23, 23]           2,320
│    │    └─BatchNorm2d: 3-2             [1, 16, 23, 23]           32
│    │    └─LeakyReLU: 3-3               [1, 16, 23, 23]           --
│    │    └─Dropout: 3-4                 [1, 16, 23, 23]           --
├─Sequential: 1-4                        [1, 8, 23, 23]            --
│    └─Conv2d: 2-4                       [1, 8, 23, 23]            1,160
│    └─BatchNorm2d: 2-5                  [1, 8, 23, 23]            16
│    └─LeakyReLU: 2-6                    [1, 8, 23, 23]            --
│    └─Dropout: 2-7                      [1, 8, 23, 23]            --
│    └─Conv2d: 2-8                       [1, 8, 23, 23]            584
│    └─BatchNorm2d: 2-9                  [1, 8, 23, 23]            16
│    └─LeakyReLU: 2-10                   [1, 8, 23, 23]            --
├─ModuleList: 1-5                        --                        --
│    └─ConvTranspose2d: 2-11             [1, 3, 46, 46]            99
==========================================================================================
Total params: 11,923
Trainable params: 11,923
Non-trainable params: 0
Total mult-adds (Units.MEGABYTES): 6.43
==========================================================================================
Input size (MB): 0.12
Forward/backward pass size (MB): 0.39
Params size (MB): 0.05
Estimated Total Size (MB): 0.56
…
