…
Epoch 10/20 | Loss: 0.0000 | Train Acc: 0.8249 | Val Acc: 0.8459 | Val IoU: 0.6803 | LR: 0.000500 | Time: 206.54s
Epoch 11/20 | Loss: 0.0000 | Train Acc: 0.8256 | Val Acc: 0.7634 | Val IoU: 0.5733 | LR: 0.000250 | Time: 203.50s
🏁 Training completed in 2427.53 seconds.
🛑 Stopped at epoch 12
Best model retained: results\l1d\28_03_08_37_acc_0.8567_EPOCH_6.pth


MODEL SUMMARY:

==========================================================================================
Layer (type:depth-idx)                   Output Shape              Param #
==========================================================================================
WaveletCNN                               [1, 3, 16, 16]            --
├─ModuleList: 1-1                        --                        --
│    └─DWTForward: 2-1                   [1, 120, 31, 31]          --
├─ModuleList: 1-2                        --                        --
│    └─Conv2d: 2-2                       [1, 16, 31, 31]           7,696
├─ModuleList: 1-3                        --                        --
│    └─Sequential: 2-3                   [1, 16, 31, 31]           --
│    │    └─Conv2d: 3-1                  [1, 16, 31, 31]           2,320
│    │    └─BatchNorm2d: 3-2             [1, 16, 31, 31]           32
│    │    └─LeakyReLU: 3-3               [1, 16, 31, 31]           --
│    │    └─Dropout: 3-4                 [1, 16, 31, 31]           --
├─Sequential: 1-4                        [1, 8, 31, 31]            --
│    └─Conv2d: 2-4                       [1, 8, 31, 31]            1,160
│    └─BatchNorm2d: 2-5                  [1, 8, 31, 31]            16
│    └─LeakyReLU: 2-6                    [1, 8, 31, 31]            --
│    └─Dropout: 2-7                      [1, 8, 31, 31]            --
│    └─Conv2d: 2-8                       [1, 8, 31, 31]            584
│    └─BatchNorm2d: 2-9                  [1, 8, 31, 31]            16
│    └─LeakyReLU: 2-10                   [1, 8, 31, 31]            --
├─ModuleList: 1-5                        --                        --
│    └─ConvTranspose2d: 2-11             [1, 3, 62, 62]            99
==========================================================================================
Total params: 11,923
Trainable params: 11,923
Non-trainable params: 0
Total mult-adds (Units.MEGABYTES): 11.68
==========================================================================================
Input size (MB): 0.12
Forward/backward pass size (MB): 0.71
Params size (MB): 0.05
Estimated Total Size (MB): 0.88
…
