…
Epoch 9/10 | Loss: 0.0000 | Train Acc: 0.9097 | Val Acc: 0.9456 | Val IoU: 0.8605 | LR: 0.000500 | Time: 81.06s
Epoch 10/10 | Loss: 0.0000 | Train Acc: 0.9100 | Val Acc: 0.9398 | Val IoU: 0.8507 | LR: 0.000500 | Time: 81.43s
🏁 Training completed in 931.34 seconds.
🛑 Stopped at epoch 10
Best model retained: results\l1d\29_03_13_37_acc_0.9463_EPOCH_7.pth


MODEL SUMMARY:

==========================================================================================
Layer (type:depth-idx)                   Output Shape              Param #
==========================================================================================
WaveletCNN                               [1, 3, 8, 8]              --
├─ModuleList: 1-1                        --                        --
│    └─DWTForward: 2-1                   [1, 120, 13, 13]          --
├─ModuleList: 1-2                        --                        --
│    └─Conv2d: 2-2                       [1, 8, 13, 13]            3,848
├─ModuleList: 1-3                        --                        --
│    └─Sequential: 2-3                   [1, 8, 13, 13]            --
│    │    └─Conv2d: 3-1                  [1, 8, 13, 13]            584
│    │    └─BatchNorm2d: 3-2             [1, 8, 13, 13]            16
│    │    └─LeakyReLU: 3-3               [1, 8, 13, 13]            --
│    │    └─Dropout: 3-4                 [1, 8, 13, 13]            --
├─Sequential: 1-4                        [1, 4, 13, 13]            --
│    └─Conv2d: 2-4                       [1, 4, 13, 13]            292
│    └─BatchNorm2d: 2-5                  [1, 4, 13, 13]            8
│    └─LeakyReLU: 2-6                    [1, 4, 13, 13]            --
│    └─Dropout: 2-7                      [1, 4, 13, 13]            --
│    └─Conv2d: 2-8                       [1, 4, 13, 13]            148
│    └─BatchNorm2d: 2-9                  [1, 4, 13, 13]            8
│    └─LeakyReLU: 2-10                   [1, 4, 13, 13]            --
├─ModuleList: 1-5                        --                        --
│    └─ConvTranspose2d: 2-11             [1, 3, 26, 26]            51
==========================================================================================
Total params: 4,955
Trainable params: 4,955
Non-trainable params: 0
Total mult-adds (Units.MEGABYTES): 0.86
==========================================================================================
Input size (MB): 0.03
Forward/backward pass size (MB): 0.07
Params size (MB): 0.02
Estimated Total Size (MB): 0.12
…
