…
Epoch 9/10 | Loss: 0.0000 | Train Acc: 0.9548 | Val Acc: 0.9361 | Val IoU: 0.8499 | LR: 0.000250 | Time: 82.90s
Epoch 10/10 | Loss: 0.0000 | Train Acc: 0.9574 | Val Acc: 0.9507 | Val IoU: 0.8771 | LR: 0.000250 | Time: 82.51s
🏁 Training completed in 927.79 seconds.
🛑 Stopped at epoch 10
Best model retained: results\l1d\29_03_10_13_acc_0.9568_EPOCH_4.pth


MODEL SUMMARY:

==========================================================================================
Layer (type:depth-idx)                   Output Shape              Param #
==========================================================================================
WaveletCNN                               [1, 3, 8, 8]              --
├─ModuleList: 1-1                        --                        --
│    └─DWTForward: 2-1                   [1, 120, 9, 9]            --
├─ModuleList: 1-2                        --                        --
│    └─Conv2d: 2-2                       [1, 16, 9, 9]             7,696
├─ModuleList: 1-3                        --                        --
│    └─Sequential: 2-3                   [1, 16, 9, 9]             --
│    │    └─Conv2d: 3-1                  [1, 16, 9, 9]             2,320
│    │    └─BatchNorm2d: 3-2             [1, 16, 9, 9]             32
│    │    └─LeakyReLU: 3-3               [1, 16, 9, 9]             --
│    │    └─Dropout: 3-4                 [1, 16, 9, 9]             --
├─Sequential: 1-4                        [1, 8, 9, 9]              --
│    └─Conv2d: 2-4                       [1, 8, 9, 9]              1,160
│    └─BatchNorm2d: 2-5                  [1, 8, 9, 9]              16
│    └─LeakyReLU: 2-6                    [1, 8, 9, 9]              --
│    └─Dropout: 2-7                      [1, 8, 9, 9]              --
│    └─Conv2d: 2-8                       [1, 8, 9, 9]              584
│    └─BatchNorm2d: 2-9                  [1, 8, 9, 9]              16
│    └─LeakyReLU: 2-10                   [1, 8, 9, 9]              --
├─ModuleList: 1-5                        --                        --
│    └─ConvTranspose2d: 2-11             [1, 3, 18, 18]            99
==========================================================================================
Total params: 11,923
Trainable params: 11,923
Non-trainable params: 0
Total mult-adds (Units.MEGABYTES): 0.98
==========================================================================================
Input size (MB): 0.03
Forward/backward pass size (MB): 0.06
Params size (MB): 0.05
Estimated Total Size (MB): 0.14
…
