…
Epoch 9/10 | Loss: 0.0000 | Train Acc: 0.9500 | Val Acc: 0.9430 | Val IoU: 0.8579 | LR: 0.000500 | Time: 164.22s
Epoch 10/10 | Loss: 0.0000 | Train Acc: 0.9507 | Val Acc: 0.9471 | Val IoU: 0.8674 | LR: 0.000500 | Time: 164.06s
🏁 Training completed in 1614.42 seconds.
🛑 Stopped at epoch 10
Best model retained: results\l1d\29_03_15_08_acc_0.9471_EPOCH_9.pth


MODEL SUMMARY:

==========================================================================================
Layer (type:depth-idx)                   Output Shape              Param #
==========================================================================================
WaveletCNN                               [1, 3, 16, 16]            --
├─ModuleList: 1-1                        --                        --
│    └─DWTForward: 2-1                   [1, 120, 13, 13]          --
├─ModuleList: 1-2                        --                        --
│    └─Conv2d: 2-2                       [1, 16, 13, 13]           7,696
├─ModuleList: 1-3                        --                        --
│    └─Sequential: 2-3                   [1, 16, 13, 13]           --
│    │    └─Conv2d: 3-1                  [1, 16, 13, 13]           2,320
│    │    └─BatchNorm2d: 3-2             [1, 16, 13, 13]           32
│    │    └─LeakyReLU: 3-3               [1, 16, 13, 13]           --
│    │    └─Dropout: 3-4                 [1, 16, 13, 13]           --
├─Sequential: 1-4                        [1, 8, 13, 13]            --
│    └─Conv2d: 2-4                       [1, 8, 13, 13]            1,160
│    └─BatchNorm2d: 2-5                  [1, 8, 13, 13]            16
│    └─LeakyReLU: 2-6                    [1, 8, 13, 13]            --
│    └─Dropout: 2-7                      [1, 8, 13, 13]            --
│    └─Conv2d: 2-8                       [1, 8, 13, 13]            584
│    └─BatchNorm2d: 2-9                  [1, 8, 13, 13]            16
│    └─LeakyReLU: 2-10                   [1, 8, 13, 13]            --
├─ModuleList: 1-5                        --                        --
│    └─ConvTranspose2d: 2-11             [1, 3, 26, 26]            99
==========================================================================================
Total params: 11,923
Trainable params: 11,923
Non-trainable params: 0
Total mult-adds (Units.MEGABYTES): 2.05
==========================================================================================
Input size (MB): 0.12
Forward/backward pass size (MB): 0.12
Params size (MB): 0.05
Estimated Total Size (MB): 0.30
…
