…
Epoch 9/10 | Loss: 0.0000 | Train Acc: 0.9214 | Val Acc: 0.9268 | Val IoU: 0.8199 | LR: 0.000500 | Time: 337.02s
Epoch 10/10 | Loss: 0.0000 | Train Acc: 0.9221 | Val Acc: 0.9329 | Val IoU: 0.8313 | LR: 0.000500 | Time: 337.49s
🏁 Training completed in 3381.51 seconds.
🛑 Stopped at epoch 10
Best model retained: results\l1d\31_03_15_25_acc_0.9329_EPOCH_9.pth


MODEL SUMMARY:

==========================================================================================
Layer (type:depth-idx)                   Output Shape              Param #
==========================================================================================
WaveletCNN                               [1, 3, 32, 32]            --
├─ModuleList: 1-1                        --                        --
│    └─DWTForward: 2-1                   [1, 120, 25, 25]          --
├─ModuleList: 1-2                        --                        --
│    └─Conv2d: 2-2                       [1, 16, 25, 25]           7,696
├─ModuleList: 1-3                        --                        --
│    └─Sequential: 2-3                   [1, 16, 25, 25]           --
│    │    └─Conv2d: 3-1                  [1, 16, 25, 25]           2,320
│    │    └─BatchNorm2d: 3-2             [1, 16, 25, 25]           32
│    │    └─LeakyReLU: 3-3               [1, 16, 25, 25]           --
│    │    └─Dropout: 3-4                 [1, 16, 25, 25]           --
├─Sequential: 1-4                        [1, 8, 25, 25]            --
│    └─Conv2d: 2-4                       [1, 8, 25, 25]            1,160
│    └─BatchNorm2d: 2-5                  [1, 8, 25, 25]            16
│    └─LeakyReLU: 2-6                    [1, 8, 25, 25]            --
│    └─Dropout: 2-7                      [1, 8, 25, 25]            --
│    └─Conv2d: 2-8                       [1, 8, 25, 25]            584
│    └─BatchNorm2d: 2-9                  [1, 8, 25, 25]            16
│    └─LeakyReLU: 2-10                   [1, 8, 25, 25]            --
├─ModuleList: 1-5                        --                        --
│    └─ConvTranspose2d: 2-11             [1, 3, 50, 50]            99
==========================================================================================
Total params: 11,923
Trainable params: 11,923
Non-trainable params: 0
Total mult-adds (Units.MEGABYTES): 7.60
==========================================================================================
Input size (MB): 0.49
Forward/backward pass size (MB): 0.46
Params size (MB): 0.05
Estimated Total Size (MB): 1.00
…
