…
Epoch 9/10 | Loss: 0.0000 | Train Acc: 0.9301 | Val Acc: 0.9236 | Val IoU: 0.8172 | LR: 0.000500 | Time: 454.57s
Epoch 10/10 | Loss: 0.0000 | Train Acc: 0.9304 | Val Acc: 0.9295 | Val IoU: 0.8279 | LR: 0.000500 | Time: 449.72s
🏁 Training completed in 3922.60 seconds.
🛑 Stopped at epoch 10
Best model retained: results\l1d\31_03_19_15_acc_0.9311_EPOCH_2.pth


MODEL SUMMARY:

==========================================================================================
Layer (type:depth-idx)                   Output Shape              Param #
==========================================================================================
WaveletCNN                               [1, 3, 32, 32]            --
├─ModuleList: 1-1                        --                        --
│    └─DWTForward: 2-1                   [1, 120, 24, 24]          --
├─ModuleList: 1-2                        --                        --
│    └─Conv2d: 2-2                       [1, 16, 24, 24]           7,696
├─ModuleList: 1-3                        --                        --
│    └─Sequential: 2-3                   [1, 16, 24, 24]           --
│    │    └─Conv2d: 3-1                  [1, 16, 24, 24]           2,320
│    │    └─BatchNorm2d: 3-2             [1, 16, 24, 24]           32
│    │    └─LeakyReLU: 3-3               [1, 16, 24, 24]           --
│    │    └─Dropout: 3-4                 [1, 16, 24, 24]           --
├─Sequential: 1-4                        [1, 8, 24, 24]            --
│    └─Conv2d: 2-4                       [1, 8, 24, 24]            1,160
│    └─BatchNorm2d: 2-5                  [1, 8, 24, 24]            16
│    └─LeakyReLU: 2-6                    [1, 8, 24, 24]            --
│    └─Dropout: 2-7                      [1, 8, 24, 24]            --
│    └─Conv2d: 2-8                       [1, 8, 24, 24]            584
│    └─BatchNorm2d: 2-9                  [1, 8, 24, 24]            16
│    └─LeakyReLU: 2-10                   [1, 8, 24, 24]            --
├─ModuleList: 1-5                        --                        --
│    └─ConvTranspose2d: 2-11             [1, 3, 48, 48]            99
==========================================================================================
Total params: 11,923
Trainable params: 11,923
Non-trainable params: 0
Total mult-adds (Units.MEGABYTES): 7.00
==========================================================================================
Input size (MB): 0.49
Forward/backward pass size (MB): 0.42
Params size (MB): 0.05
Estimated Total Size (MB): 0.96
…
