…
Epoch 9/10 | Loss: 0.0000 | Train Acc: 0.9472 | Val Acc: 0.9365 | Val IoU: 0.8448 | LR: 0.000500 | Time: 333.88s
Epoch 10/10 | Loss: 0.0000 | Train Acc: 0.9475 | Val Acc: 0.9407 | Val IoU: 0.8527 | LR: 0.000500 | Time: 329.60s
🏁 Training completed in 3356.66 seconds.
🛑 Stopped at epoch 10
Best model retained: results\l1d\31_03_16_37_acc_0.9427_EPOCH_3.pth


MODEL SUMMARY:

==========================================================================================
Layer (type:depth-idx)                   Output Shape              Param #
==========================================================================================
WaveletCNN                               [1, 3, 32, 32]            --
├─ModuleList: 1-1                        --                        --
│    └─DWTForward: 2-1                   [1, 120, 21, 21]          --
├─ModuleList: 1-2                        --                        --
│    └─Conv2d: 2-2                       [1, 16, 21, 21]           7,696
├─ModuleList: 1-3                        --                        --
│    └─Sequential: 2-3                   [1, 16, 21, 21]           --
│    │    └─Conv2d: 3-1                  [1, 16, 21, 21]           2,320
│    │    └─BatchNorm2d: 3-2             [1, 16, 21, 21]           32
│    │    └─LeakyReLU: 3-3               [1, 16, 21, 21]           --
│    │    └─Dropout: 3-4                 [1, 16, 21, 21]           --
├─Sequential: 1-4                        [1, 8, 21, 21]            --
│    └─Conv2d: 2-4                       [1, 8, 21, 21]            1,160
│    └─BatchNorm2d: 2-5                  [1, 8, 21, 21]            16
│    └─LeakyReLU: 2-6                    [1, 8, 21, 21]            --
│    └─Dropout: 2-7                      [1, 8, 21, 21]            --
│    └─Conv2d: 2-8                       [1, 8, 21, 21]            584
│    └─BatchNorm2d: 2-9                  [1, 8, 21, 21]            16
│    └─LeakyReLU: 2-10                   [1, 8, 21, 21]            --
├─ModuleList: 1-5                        --                        --
│    └─ConvTranspose2d: 2-11             [1, 3, 42, 42]            99
==========================================================================================
Total params: 11,923
Trainable params: 11,923
Non-trainable params: 0
Total mult-adds (Units.MEGABYTES): 5.36
==========================================================================================
Input size (MB): 0.49
Forward/backward pass size (MB): 0.32
Params size (MB): 0.05
Estimated Total Size (MB): 0.86
…
